…
I0609 05:04:34.366521 30564 net.cpp:294] The NetState phase (0) differed from the phase (1) specified by a rule in layer mnist
I0609 05:04:34.366545 30564 net.cpp:294] The NetState phase (0) differed from the phase (1) specified by a rule in layer accuracy
I0609 05:04:34.366674 30564 net.cpp:51] Initializing net from parameters: 
name: "LeNet"
state {
  phase: TRAIN
  level: 0
  stage: ""
}
layer {
  name: "mnist"
  type: "Data"
  top: "data"
  top: "label"
  include {
    phase: TRAIN
  }
  transform_param {
    scale: 0.00390625
  }
  data_param {
    source: "examples/mnist/mnist_train_lmdb"
    batch_size: 64
    backend: LMDB
  }
}
layer {
  name: "conv1"
  type: "Convolution"
  bottom: "data"
  top: "conv1"
  param {
    lr_mult: 1
  }
  param {
    lr_mult: 2
  }
  convolution_param {
    num_output: 20
    kernel_size: 5
    stride: 1
    weight_filler {
      type: "xavier"
    }
    bias_filler {
      type: "constant"
    }
  }
}
layer {
  name: "pool1"
  type: "Pooling"
  bottom: "conv1"
  top: "pool1"
  pooling_param {
    pool: MAX
    kernel_size: 2
    stride: 2
  }
}
layer {
  name: "conv2"
  type: "Convolution"
  bottom: "pool1"
  top: "conv2"
  param {
    lr_mult: 1
  }
  param {
    lr_mult: 2
  }
  convolution_param {
    num_output: 50
    kernel_size: 5
    stride: 1
    weight_filler {
      type: "xavier"
    }
    bias_filler {
      type: "constant"
    }
  }
}
layer {
  name: "pool2"
  type: "Pooling"
  bottom: "conv2"
  top: "pool2"
  pooling_param {
    pool: MAX
    kernel_size: 2
    stride: 2
  }
}
layer {
  name: "ip1"
  type: "InnerProduct"
  bottom: "pool2"
  top: "ip1"
  param {
    lr_mult: 1
  }
  param {
    lr_mult: 2
  }
  inner_product_param {
    num_output: 500
    weight_filler {
      type: "xavier"
    }
    bias_filler {
      type: "constant"
    }
  }
}
layer {
  name: "relu1"
  type: "ReLU"
  bottom: "ip1"
  top: "ip1"
}
layer {
  name: "ip2"
  type: "InnerProduct"
  bottom: "ip1"
  top: "ip2"
  param {
    lr_mult: 1
  }
  param {
    lr_mult: 2
  }
  inner_product_param {
    num_output: 10
    weight_filler {
      type: "xavier"
    }
    bias_filler {
      type: "constant"
    }
  }
}
layer {
  name: "loss"
  type: "SoftmaxWithLoss"
  bottom: "ip2"
  bottom: "label"
  top: "loss"
}
I0609 05:04:34.366905 30564 layer_factory.hpp:77] Creating layer mnist
I0609 05:04:34.391477 30564 db_lmdb.cpp:35] Opened lmdb examples/mnist/mnist_train_lmdb
I0609 05:04:34.395364 30564 net.cpp:84] Creating Layer mnist
I0609 05:04:34.395398 30564 net.cpp:380] mnist -> data
I0609 05:04:34.395439 30564 net.cpp:380] mnist -> label
I0609 05:04:34.397351 30564 data_layer.cpp:45] output data size: 64,1,28,28
I0609 05:04:34.400795 30564 net.cpp:122] Setting up mnist
I0609 05:04:34.400820 30564 net.cpp:129] Top shape: 64 1 28 28 (50176)
I0609 05:04:34.400826 30564 net.cpp:129] Top shape: 64 (64)
I0609 05:04:34.400830 30564 net.cpp:137] Memory required for data: 200960
I0609 05:04:34.400841 30564 layer_factory.hpp:77] Creating layer conv1
I0609 05:04:34.400874 30564 net.cpp:84] Creating Layer conv1
I0609 05:04:34.400885 30564 net.cpp:406] conv1 <- data
I0609 05:04:34.400908 30564 net.cpp:380] conv1 -> conv1
I0609 05:04:35.871146 30564 net.cpp:122] Setting up conv1
I0609 05:04:35.871184 30564 net.cpp:129] Top shape: 64 20 24 24 (737280)
I0609 05:04:35.871188 30564 net.cpp:137] Memory required for data: 3150080
I0609 05:04:35.871219 30564 layer_factory.hpp:77] Creating layer pool1
I0609 05:04:35.871239 30564 net.cpp:84] Creating Layer pool1
I0609 05:04:35.871279 30564 net.cpp:406] pool1 <- conv1
I0609 05:04:35.871289 30564 net.cpp:380] pool1 -> pool1
I0609 05:04:35.871368 30564 net.cpp:122] Setting up pool1
I0609 05:04:35.871379 30564 net.cpp:129] Top shape: 64 20 12 12 (184320)
I0609 05:04:35.871383 30564 net.cpp:137] Memory required for data: 3887360
I0609 05:04:35.871387 30564 layer_factory.hpp:77] Creating layer conv2
I0609 05:04:35.871400 30564 net.cpp:84] Creating Layer conv2
I0609 05:04:35.871403 30564 net.cpp:406] conv2 <- pool1
I0609 05:04:35.871409 30564 net.cpp:380] conv2 -> conv2
I0609 05:04:35.876983 30564 net.cpp:122] Setting up conv2
I0609 05:04:35.877002 30564 net.cpp:129] Top shape: 64 50 8 8 (204800)
I0609 05:04:35.877007 30564 net.cpp:137] Memory required for data: 4706560
I0609 05:04:35.877020 30564 layer_factory.hpp:77] Creating layer pool2
I0609 05:04:35.877029 30564 net.cpp:84] Creating Layer pool2
I0609 05:04:35.877033 30564 net.cpp:406] pool2 <- conv2
I0609 05:04:35.877041 30564 net.cpp:380] pool2 -> pool2
I0609 05:04:35.877099 30564 net.cpp:122] Setting up pool2
I0609 05:04:35.877110 30564 net.cpp:129] Top shape: 64 50 4 4 (51200)
I0609 05:04:35.877116 30564 net.cpp:137] Memory required for data: 4911360
I0609 05:04:35.877120 30564 layer_factory.hpp:77] Creating layer ip1
I0609 05:04:35.877132 30564 net.cpp:84] Creating Layer ip1
I0609 05:04:35.877138 30564 net.cpp:406] ip1 <- pool2
I0609 05:04:35.877146 30564 net.cpp:380] ip1 -> ip1
I0609 05:04:35.880759 30564 net.cpp:122] Setting up ip1
I0609 05:04:35.880775 30564 net.cpp:129] Top shape: 64 500 (32000)
I0609 05:04:35.880779 30564 net.cpp:137] Memory required for data: 5039360
I0609 05:04:35.880789 30564 layer_factory.hpp:77] Creating layer relu1
I0609 05:04:35.880798 30564 net.cpp:84] Creating Layer relu1
I0609 05:04:35.880802 30564 net.cpp:406] relu1 <- ip1
I0609 05:04:35.880807 30564 net.cpp:367] relu1 -> ip1 (in-place)
I0609 05:04:35.881016 30564 net.cpp:122] Setting up relu1
I0609 05:04:35.881031 30564 net.cpp:129] Top shape: 64 500 (32000)
I0609 05:04:35.881034 30564 net.cpp:137] Memory required for data: 5167360
I0609 05:04:35.881038 30564 layer_factory.hpp:77] Creating layer ip2
I0609 05:04:35.881047 30564 net.cpp:84] Creating Layer ip2
I0609 05:04:35.881049 30564 net.cpp:406] ip2 <- ip1
I0609 05:04:35.881058 30564 net.cpp:380] ip2 -> ip2
I0609 05:04:35.882567 30564 net.cpp:122] Setting up ip2
I0609 05:04:35.882586 30564 net.cpp:129] Top shape: 64 10 (640)
I0609 05:04:35.882588 30564 net.cpp:137] Memory required for data: 5169920
I0609 05:04:35.882594 30564 layer_factory.hpp:77] Creating layer loss
I0609 05:04:35.882603 30564 net.cpp:84] Creating Layer loss
I0609 05:04:35.882606 30564 net.cpp:406] loss <- ip2
I0609 05:04:35.882611 30564 net.cpp:406] loss <- label
I0609 05:04:35.882622 30564 net.cpp:380] loss -> loss
I0609 05:04:35.882640 30564 layer_factory.hpp:77] Creating layer loss
…
I0609 05:04:35.883750 30564 solver.cpp:172] Creating test net (#0) specified by net file: examples/mnist/lenet_train_test.prototxt
I0609 05:04:35.883797 30564 net.cpp:294] The NetState phase (1) differed from the phase (0) specified by a rule in layer mnist
I0609 05:04:35.883893 30564 net.cpp:51] Initializing net from parameters: 
name: "LeNet"
state {
  phase: TEST
}
layer {
  name: "mnist"
  type: "Data"
  top: "data"
  top: "label"
  include {
    phase: TEST
  }
  transform_param {
    scale: 0.00390625
  }
  data_param {
    source: "examples/mnist/mnist_test_lmdb"
    batch_size: 100
    backend: LMDB
  }
}
layer {
  name: "conv1"
  type: "Convolution"
  bottom: "data"
  top: "conv1"
  param {
    lr_mult: 1
  }
  param {
    lr_mult: 2
  }
  convolution_param {
    num_output: 20
    kernel_size: 5
    stride: 1
    weight_filler {
      type: "xavier"
    }
    bias_filler {
      type: "constant"
    }
  }
}
layer {
  name: "pool1"
  type: "Pooling"
  bottom: "conv1"
  top: "pool1"
  pooling_param {
    pool: MAX
    kernel_size: 2
    stride: 2
  }
}
layer {
  name: "conv2"
  type: "Convolution"
  bottom: "pool1"
  top: "conv2"
  param {
    lr_mult: 1
  }
  param {
    lr_mult: 2
  }
  convolution_param {
    num_output: 50
    kernel_size: 5
    stride: 1
    weight_filler {
      type: "xavier"
    }
    bias_filler {
      type: "constant"
    }
  }
}
layer {
  name: "pool2"
  type: "Pooling"
  bottom: "conv2"
  top: "pool2"
  pooling_param {
    pool: MAX
    kernel_size: 2
    stride: 2
  }
}
layer {
  name: "ip1"
  type: "InnerProduct"
  bottom: "pool2"
  top: "ip1"
  param {
    lr_mult: 1
  }
  param {
    lr_mult: 2
  }
  inner_product_param {
    num_output: 500
    weight_filler {
      type: "xavier"
    }
    bias_filler {
      type: "constant"
    }
  }
}
layer {
  name: "relu1"
  type: "ReLU"
  bottom: "ip1"
  top: "ip1"
}
layer {
  name: "ip2"
  type: "InnerProduct"
  bottom: "ip1"
  top: "ip2"
  param {
    lr_mult: 1
  }
  param {
    lr_mult: 2
  }
  inner_product_param {
    num_output: 10
    weight_filler {
      type: "xavier"
    }
    bias_filler {
      type: "constant"
    }
  }
}
layer {
  name: "accuracy"
  type: "Accuracy"
  bottom: "ip2"
  bottom: "label"
  top: "accuracy"
  include {
    phase: TEST
  }
}
layer {
  name: "loss"
  type: "SoftmaxWithLoss"
  bottom: "ip2"
  bottom: "label"
  top: "loss"
}
I0609 05:04:35.884152 30564 layer_factory.hpp:77] Creating layer mnist
I0609 05:04:35.901814 30564 db_lmdb.cpp:35] Opened lmdb examples/mnist/mnist_test_lmdb
I0609 05:04:35.907203 30564 net.cpp:84] Creating Layer mnist
I0609 05:04:35.907238 30564 net.cpp:380] mnist -> data
I0609 05:04:35.907250 30564 net.cpp:380] mnist -> label
I0609 05:04:35.907353 30564 data_layer.cpp:45] output data size: 100,1,28,28
I0609 05:04:35.909796 30564 net.cpp:122] Setting up mnist
I0609 05:04:35.909814 30564 net.cpp:129] Top shape: 100 1 28 28 (78400)
I0609 05:04:35.909819 30564 net.cpp:129] Top shape: 100 (100)
I0609 05:04:35.909822 30564 net.cpp:137] Memory required for data: 314000
I0609 05:04:35.909826 30564 layer_factory.hpp:77] Creating layer label_mnist_1_split
I0609 05:04:35.909921 30564 net.cpp:84] Creating Layer label_mnist_1_split
I0609 05:04:35.909957 30564 net.cpp:406] label_mnist_1_split <- label
I0609 05:04:35.909984 30564 net.cpp:380] label_mnist_1_split -> label_mnist_1_split_0
I0609 05:04:35.910017 30564 net.cpp:380] label_mnist_1_split -> label_mnist_1_split_1
I0609 05:04:35.910295 30564 net.cpp:122] Setting up label_mnist_1_split
I0609 05:04:35.910315 30564 net.cpp:129] Top shape: 100 (100)
I0609 05:04:35.910323 30564 net.cpp:129] Top shape: 100 (100)
I0609 05:04:35.910329 30564 net.cpp:137] Memory required for data: 314800
I0609 05:04:35.910337 30564 layer_factory.hpp:77] Creating layer conv1
I0609 05:04:35.910370 30564 net.cpp:84] Creating Layer conv1
I0609 05:04:35.910382 30564 net.cpp:406] conv1 <- data
I0609 05:04:35.910401 30564 net.cpp:380] conv1 -> conv1
I0609 05:04:35.912559 30564 net.cpp:122] Setting up conv1
I0609 05:04:35.912597 30564 net.cpp:129] Top shape: 100 20 24 24 (1152000)
I0609 05:04:35.912611 30564 net.cpp:137] Memory required for data: 4922800
I0609 05:04:35.912634 30564 layer_factory.hpp:77] Creating layer pool1
I0609 05:04:35.912689 30564 net.cpp:84] Creating Layer pool1
I0609 05:04:35.912703 30564 net.cpp:406] pool1 <- conv1
I0609 05:04:35.912724 30564 net.cpp:380] pool1 -> pool1
I0609 05:04:35.912820 30564 net.cpp:122] Setting up pool1
I0609 05:04:35.912842 30564 net.cpp:129] Top shape: 100 20 12 12 (288000)
I0609 05:04:35.912852 30564 net.cpp:137] Memory required for data: 6074800
I0609 05:04:35.912861 30564 layer_factory.hpp:77] Creating layer conv2
I0609 05:04:35.912888 30564 net.cpp:84] Creating Layer conv2
I0609 05:04:35.912897 30564 net.cpp:406] conv2 <- pool1
I0609 05:04:35.912912 30564 net.cpp:380] conv2 -> conv2
I0609 05:04:35.916321 30564 net.cpp:122] Setting up conv2
I0609 05:04:35.916352 30564 net.cpp:129] Top shape: 100 50 8 8 (320000)
I0609 05:04:35.916363 30564 net.cpp:137] Memory required for data: 7354800
I0609 05:04:35.916405 30564 layer_factory.hpp:77] Creating layer pool2
I0609 05:04:35.916425 30564 net.cpp:84] Creating Layer pool2
I0609 05:04:35.916436 30564 net.cpp:406] pool2 <- conv2
I0609 05:04:35.916452 30564 net.cpp:380] pool2 -> pool2
I0609 05:04:35.916550 30564 net.cpp:122] Setting up pool2
I0609 05:04:35.916566 30564 net.cpp:129] Top shape: 100 50 4 4 (80000)
I0609 05:04:35.916576 30564 net.cpp:137] Memory required for data: 7674800
I0609 05:04:35.916585 30564 layer_factory.hpp:77] Creating layer ip1
I0609 05:04:35.916609 30564 net.cpp:84] Creating Layer ip1
I0609 05:04:35.916618 30564 net.cpp:406] ip1 <- pool2
I0609 05:04:35.916632 30564 net.cpp:380] ip1 -> ip1
I0609 05:04:35.924355 30564 net.cpp:122] Setting up ip1
I0609 05:04:35.924397 30564 net.cpp:129] Top shape: 100 500 (50000)
I0609 05:04:35.924407 30564 net.cpp:137] Memory required for data: 7874800
I0609 05:04:35.924430 30564 layer_factory.hpp:77] Creating layer relu1
I0609 05:04:35.924448 30564 net.cpp:84] Creating Layer relu1
I0609 05:04:35.924466 30564 net.cpp:406] relu1 <- ip1
I0609 05:04:35.924480 30564 net.cpp:367] relu1 -> ip1 (in-place)
I0609 05:04:35.925952 30564 net.cpp:122] Setting up relu1
I0609 05:04:35.925981 30564 net.cpp:129] Top shape: 100 500 (50000)
I0609 05:04:35.925989 30564 net.cpp:137] Memory required for data: 8074800
I0609 05:04:35.925999 30564 layer_factory.hpp:77] Creating layer ip2
I0609 05:04:35.926028 30564 net.cpp:84] Creating Layer ip2
I0609 05:04:35.926038 30564 net.cpp:406] ip2 <- ip1
I0609 05:04:35.926055 30564 net.cpp:380] ip2 -> ip2
I0609 05:04:35.926388 30564 net.cpp:122] Setting up ip2
I0609 05:04:35.926403 30564 net.cpp:129] Top shape: 100 10 (1000)
I0609 05:04:35.926412 30564 net.cpp:137] Memory required for data: 8078800
I0609 05:04:35.926427 30564 layer_factory.hpp:77] Creating layer ip2_ip2_0_split
I0609 05:04:35.926443 30564 net.cpp:84] Creating Layer ip2_ip2_0_split
I0609 05:04:35.926453 30564 net.cpp:406] ip2_ip2_0_split <- ip2
I0609 05:04:35.926476 30564 net.cpp:380] ip2_ip2_0_split -> ip2_ip2_0_split_0
I0609 05:04:35.926492 30564 net.cpp:380] ip2_ip2_0_split -> ip2_ip2_0_split_1
I0609 05:04:35.926573 30564 net.cpp:122] Setting up ip2_ip2_0_split
I0609 05:04:35.926589 30564 net.cpp:129] Top shape: 100 10 (1000)
I0609 05:04:35.926599 30564 net.cpp:129] Top shape: 100 10 (1000)
I0609 05:04:35.926607 30564 net.cpp:137] Memory required for data: 8086800
I0609 05:04:35.926616 30564 layer_factory.hpp:77] Creating layer accuracy
I0609 05:04:35.926636 30564 net.cpp:84] Creating Layer accuracy
I0609 05:04:35.926646 30564 net.cpp:406] accuracy <- ip2_ip2_0_split_0
I0609 05:04:35.926658 30564 net.cpp:406] accuracy <- label_mnist_1_split_0
I0609 05:04:35.926676 30564 net.cpp:380] accuracy -> accuracy
…
